tmp.model (npz, 2165 bytes, 6 tensors)

l3/b f4 [6]
00000000: 98d3 533e ef89 dabd 62d0 533e 8f74 5cbe
00000010: 61d1 533e cac3 5cbe
0.20686185 -0.1067084 0.2068496 -0.21528839 0.2068534 -0.21559063

l1/W f4 [15, 6]
00000000: ef35 b5be b52a 8dbe f33c 513e ce4d adbe
00000010: 5ca7 61be c27e ad3e 41f2 5bbe 8bca 643e
00000020: f72e 663f 048d a33d 374b c7be 8d54 b2bd
00000030: 7973 a4bf 23d2 f2be 3488 81be 6087 2a3f
00000040: 5278 cdbe 0d23 953e 5800 9c3e a679 d3be
00000050: 083c ebbe fae8 8f3e 69a1 d2be 9b2d 3abf
00000060: 036a 53bd 485d 9d3e 0428 d53d ec8c f5be
00000070: 8019 87bf 04e4 01bd 9116 bd3e 9b99 183f
00000080: 0c20 973e 36de 6c3e 3bad e73e 5a85 ce3e
00000090: 03be 0cbf d810 8abe 85f2 5f3f c090 433e
000000a0: 2794 3dbf 484d 973e bcdd b0bd 7251 03bf
000000b0: 239c 4d3d bd82 05bf 96b3 f33e 88e9 9fbd
000000c0: afbd 4fbe 753c 423f 6123 bf3d eab5 9abe
000000d0: 1c28 b33e 6b90 52bf 1d27 70bd 4e47 c3be
000000e0: f33f e73e 4c54 3b3f 5c05 f23e fd20 a63e
000000f0: 5123 a53e 33ca a63f 61d6 60be 5bc7 f4be
00000100: d955 43be 7a8f be3e 3e3a 43be e787 7abe
00000110: ca9c 8e3e dacb 513d 43d6 3cbe 793b 34bf
00000120: 6c16 313f a91c 1cbf 0979 70bf 47f3 5ebe
00000130: 4b36 00bf fddd b3be 2257 ecbd 967d 003f
00000140: b642 c13e e0ff 75be 269c 3cbe e7b9 ce3d
00000150: d83c 6dbf 9caf 23be 2426 173f 46e0 2f3d
00000160: cbbc c4be 5279 423f
-0.3539271 -0.27571645 0.20433407 -0.33848423 -0.22036499 0.3388577 -0.21479131 0.22342889
0.8991541 0.07985881 -0.38924572 -0.08707533 -1.284774 -0.47425947 -0.25299227 0.66612816
-0.4013086 0.29128304 0.30469012 -0.41303748 -0.45944238 0.28107435 -0.4113877 -0.7272584
-0.051614773 0.3073523 0.10408023 -0.47959077 -1.0554657 -0.031711593 0.3693128 0.59609383
0.29516637 0.23131642 0.45249352 0.40336114 -0.54977435 -0.26965976 0.8747943 0.19098186
-0.7405419 0.29551148 -0.086360425 -0.5129615 0.05019773 -0.52152616 0.4759795 -0.078082144
-0.20287202 0.758735 0.0933292 -0.30216914 0.3499154 -0.82251614 -0.05863105 -0.3814034
0.45165977 0.731755 0.47269714 0.32447043 0.32253507 1.3030456 -0.21956779 -0.47808346
-0.19075717 0.3721884 -0.19065186 -0.24465905 0.27853996 0.0512198 -0.1844111 -0.7040325
0.6917484 -0.6098123 -0.93934685 -0.2177249 -0.50082844 -0.351303 -0.11540057 0.5019163
0.3774621 -0.2402339 -0.18418941 0.10094052 -0.92670965 -0.15984958 0.5904257 0.042938493
-0.38425288 0.7596637

l1/b f4 [15]
00000000: 0000 0000 c4d8 63bd 0000 0000 0000 0000
00000010: 0000 0000 767f 90bc 0000 0000 69c5 86bd
00000020: 2391 fdbc 5501 aa3d 0000 0000 c965 c63d
00000030: 0000 0000 33e5 22bd 0000 0000
0.0 -0.055626646 0.0 0.0 0.0 -0.017638903 0.0 -0.06580622
-0.030952996 0.08301035 0.0 0.09687383 0.0 -0.039769363 0.0

l3/W f4 [6, 8]
00000000: 50b8 11bf c1a7 543f 19d7 9eb8 b47f 9c3c
00000010: bab4 1a3e 4b9b 66bf 99b6 19be a8be f13c
00000020: d583 9fbe a35a babe a963 833f cd0c 5ebd
00000030: 2dc4 2dbf 3997 45be 2b0a a23c da82 1c3f
00000040: c2ee fa3e 3ba6 393f 24ad 9438 810e aebd
00000050: da69 7abe d405 6abf 7905 1bbf cbc5 b3be
00000060: b5a0 073f 1a76 93be 547c 0440 f412 94be
00000070: 6632 323e af23 993e 6356 ae3e b711 993e
00000080: 288c aabe b9e7 21bf eea0 3a39 23e2 0abf
00000090: c912 61be 55ce ac3e 9f70 49bd fb35 febe
000000a0: 2361 0cbe 09f9 313f 24a8 0440 3c1a 603e
000000b0: ab3e 42be eec6 16bf b995 623f f052 953e
-0.56921864 0.8306847 -7.574092e-05 0.019103862 0.15108004 -0.9008071 -0.15011062 0.029509857
-0.31155267 -0.36397275 1.0264789 -0.054211427 -0.67877465 -0.19295968 0.01978024 0.61137164
0.49010283 0.7251927 7.08944e-05 -0.0849886 -0.24454442 -0.91415143 -0.60555226 -0.35111842
0.52979594 -0.28801042 2.0700884 -0.2892071 0.17402038 0.29910037 0.34050283 0.29896328
-0.33310056 -0.63244206 0.00017798293 -0.5425131 -0.21979822 0.3375117 -0.04917967 -0.4965056
-0.1370893 0.6952062 2.0727625 0.21885008 -0.18969218 -0.5889729 0.8850971 0.2916484

l2/W f4 [8, 15]
00000000: 5b2b eebc 6612 663e 8e76 98be d29a 883f
00000010: 03b8 033f a603 8dbd 298a 403e 04e5 86be
00000020: d120 763e 764e d5be 34da 553d 6ac2 d23e
00000030: 369b 14bf 69a4 203f 1316 523f cef1 13bd
00000040: bf9d 1cbf c59e afbe e94a 38be c9ad 793d
00000050: 7dbc a8bd 9390 eb3e f384 2b3e 8deb a7be
00000060: 8733 a7be b5da 933e ec35 513e d45e 1ebe
00000070: d431 4c3c 0897 75be 291f 86be 97e3 a13c
00000080: 6373 8e3e 5257 5bbd 2bdc f8bc bd25 c33e
00000090: 832b dbbe 35d7 ecbe 560c 99bd 7114 5c3e
000000a0: 25e9 22be bc4c a03d b9aa 1abe cad3 f6be
000000b0: a147 293e 9795 d73e 11c6 98be ba7d 35be
000000c0: 3130 01bf 1819 bcbd ab41 5d3f 30eb 7d3d
000000d0: 2010 583d 452e 9e3e a623 39bf 3e41 acbe
000000e0: dca8 1cbf 49b5 20bf 97c3 aa3e 7ee8 323f
000000f0: 689b 04be 7441 843e 1566 74be 7dc5 a53e
00000100: 8092 1abe 75f6 d7be e3bc 253f b8da a3be
00000110: 518a 52be 9150 b4be 5689 0d3f 9e74 3a3f
00000120: 662b 2ebe cec3 313e 5fbb 1abf c062 ff3e
00000130: df16 673b 81f1 8e3e de39 283d 773d c9bd
00000140: 8378 823d e3a0 22bf 0bf7 1dbd b50b debe
00000150: fc9e 72bd 6036 9bbe 1d40 003c bd53 d83e
00000160: 79b4 d03d 217e 0f3f a393 01bf 797f 21be
00000170: 55b6 c53e fa0f 58be d6fb 113e 7725 58bf
00000180: 24b7 183f b888 27be 771a 6abf 81eb bd3e
00000190: aae0 153f f39b 4ebc e37e 383f f5a7 6f3e
000001a0: 371a 533f 0125 2b3f dd18 febd 4d89 99be
000001b0: fb18 98be 8237 583e 5298 eebe 2d40 0b3e
000001c0: 66c1 a7bd 6eab cabd 8fd1 2a3d 2b24 863c
000001d0: 1a43 cb3d 1d6e a83e 2b65 15be fc8f e23c
-0.029073408 0.22467956 -0.2977795 1.0672247 0.51452655 -0.068854615 0.18802704 -0.263466
0.24035956 -0.41661423 0.052210048 0.4116395 -0.58049333 0.6275087 0.8206493 -0.036119275
-0.611782 -0.3430082 -0.17997326 0.06095675 -0.08239076 0.4600874 0.16749935 -0.32796898
-0.326565 0.28877798 0.20430726 -0.15465862 0.012463052 -0.23983395 -0.26195648 0.019761844
0.27822408 -0.053550072 -0.030378422 0.3811473 -0.42806634 -0.4625794 -0.07473056 0.21492173
-0.1590925 0.07827136 -0.15104188 -0.48208457 0.1653123 0.42106315 -0.29838613 -0.17723742
-0.5046416 -0.09184474 0.86428326 0.06199187 0.052749753 0.30894676 -0.7232002 -0.33643526
-0.6119516 -0.6277662 0.33352348 0.69886005 -0.12949908 0.25831187 -0.23867066 0.32377234
-0.15094948 -0.4218022 0.64741343 -0.32002807 -0.20560576 -0.35217717 0.55287683 0.72834194
-0.17008743 0.1735985 -0.60442156 0.49880028 0.0035261435 0.27918628 0.04107081 -0.098261766
0.06370642 -0.63526744 -0.038565677 -0.43368307 -0.05923365 -0.30314922 0.007827786 0.42251387
0.101906724 0.5605183 -0.506159 -0.15771283 0.3861567 -0.21099845 0.14256224 -0.84432167
0.5965445 -0.16360748 -0.9144663 0.37093738 0.58545935 -0.012610423 0.72068614 0.23403914
0.82461876 0.6685334 -0.12407086 -0.29987565 -0.2970656 0.21114925 -0.46600586 0.135987
-0.08191185 -0.09895979 0.041703757 0.016374668 0.09924908 0.3289651 -0.14589374 0.027656548

l2/b f4 [8]
00000000: 0000 0000 0000 0000 252b 94bd cf5f c6bd
00000010: 0000 0000 bde6 bbbc 0000 0000 0000 0000
0.0 0.0 -0.07234792 -0.09686243 0.0 -0.022937173 0.0 0.0
